…
get_split_attention_unit Tensor("add_2/Identity:0", shape=(None, 10, 10, 256), dtype=float16)
cnn1_5_1
split_batchnorm1_5_1
split_relu_5_1
-----downsample------------------
avg.pooling_5_1
cnn2_5_1
split_batchnorm2_5_1
shortcut_conv_5_1
shortcut_batchnorm_5_1
final-batchnorm_6_0
final-relu_6_0
Model: "model"
__________________________________________________________________________________________________
Layer (type)                    Output Shape         Param #     Connected to                     
==================================================================================================
input (InputLayer)              [(None, 150, 150, 3) 0                                            
__________________________________________________________________________________________________
conv2d_1_0 (Conv2D)             (None, 75, 75, 64)   9472        input[0][0]                      
__________________________________________________________________________________________________
barchnorm_1_0 (BatchNormalizati (None, 75, 75, 64)   256         conv2d_1_0[0][0]                 
__________________________________________________________________________________________________
relu_1_0 (Activation)           (None, 75, 75, 64)   0           barchnorm_1_0[0][0]              
__________________________________________________________________________________________________
cnn1_2_1 (Conv2D)               (None, 75, 75, 64)   4160        relu_1_0[0][0]                   
__________________________________________________________________________________________________
split_batchnorm1_2_1 (BatchNorm (None, 75, 75, 64)   256         cnn1_2_1[0][0]                   
__________________________________________________________________________________________________
split_relu_2_1 (Activation)     (None, 75, 75, 64)   0           split_batchnorm1_2_1[0][0]       
__________________________________________________________________________________________________
avg.pooling_2_1 (AveragePooling (None, 38, 38, 64)   0           split_relu_2_1[0][0]             
__________________________________________________________________________________________________
cnn2_2_1 (Conv2D)               (None, 38, 38, 64)   4160        avg.pooling_2_1[0][0]            
__________________________________________________________________________________________________
shortcut_conv_2_1 (Conv2D)      (None, 38, 38, 64)   4160        relu_1_0[0][0]                   
__________________________________________________________________________________________________
split_batchnorm2_2_1 (BatchNorm (None, 38, 38, 64)   256         cnn2_2_1[0][0]                   
__________________________________________________________________________________________________
shortcut_batchnorm_2_1 (BatchNo (None, 38, 38, 64)   256         shortcut_conv_2_1[0][0]          
__________________________________________________________________________________________________
add (Add)                       (None, 38, 38, 64)   0           split_batchnorm2_2_1[0][0]       
                                                                 shortcut_batchnorm_2_1[0][0]     
__________________________________________________________________________________________________
cnn1_3_1 (Conv2D)               (None, 38, 38, 128)  8320        add[0][0]                        
__________________________________________________________________________________________________
split_batchnorm1_3_1 (BatchNorm (None, 38, 38, 128)  512         cnn1_3_1[0][0]                   
__________________________________________________________________________________________________
split_relu_3_1 (Activation)     (None, 38, 38, 128)  0           split_batchnorm1_3_1[0][0]       
__________________________________________________________________________________________________
avg.pooling_3_1 (AveragePooling (None, 19, 19, 128)  0           split_relu_3_1[0][0]             
__________________________________________________________________________________________________
cnn2_3_1 (Conv2D)               (None, 19, 19, 128)  16512       avg.pooling_3_1[0][0]            
__________________________________________________________________________________________________
shortcut_conv_3_1 (Conv2D)      (None, 19, 19, 128)  8320        add[0][0]                        
__________________________________________________________________________________________________
split_batchnorm2_3_1 (BatchNorm (None, 19, 19, 128)  512         cnn2_3_1[0][0]                   
__________________________________________________________________________________________________
shortcut_batchnorm_3_1 (BatchNo (None, 19, 19, 128)  512         shortcut_conv_3_1[0][0]          
__________________________________________________________________________________________________
add_1 (Add)                     (None, 19, 19, 128)  0           split_batchnorm2_3_1[0][0]       
                                                                 shortcut_batchnorm_3_1[0][0]     
__________________________________________________________________________________________________
cnn1_4_1 (Conv2D)               (None, 19, 19, 256)  33024       add_1[0][0]                      
__________________________________________________________________________________________________
split_batchnorm1_4_1 (BatchNorm (None, 19, 19, 256)  1024        cnn1_4_1[0][0]                   
__________________________________________________________________________________________________
split_relu_4_1 (Activation)     (None, 19, 19, 256)  0           split_batchnorm1_4_1[0][0]       
__________________________________________________________________________________________________
avg.pooling_4_1 (AveragePooling (None, 10, 10, 256)  0           split_relu_4_1[0][0]             
__________________________________________________________________________________________________
cnn2_4_1 (Conv2D)               (None, 10, 10, 256)  65792       avg.pooling_4_1[0][0]            
__________________________________________________________________________________________________
shortcut_conv_4_1 (Conv2D)      (None, 10, 10, 256)  33024       add_1[0][0]                      
__________________________________________________________________________________________________
split_batchnorm2_4_1 (BatchNorm (None, 10, 10, 256)  1024        cnn2_4_1[0][0]                   
__________________________________________________________________________________________________
shortcut_batchnorm_4_1 (BatchNo (None, 10, 10, 256)  1024        shortcut_conv_4_1[0][0]          
__________________________________________________________________________________________________
add_2 (Add)                     (None, 10, 10, 256)  0           split_batchnorm2_4_1[0][0]       
                                                                 shortcut_batchnorm_4_1[0][0]     
__________________________________________________________________________________________________
cnn1_5_1 (Conv2D)               (None, 10, 10, 512)  131584      add_2[0][0]                      
__________________________________________________________________________________________________
split_batchnorm1_5_1 (BatchNorm (None, 10, 10, 512)  2048        cnn1_5_1[0][0]                   
__________________________________________________________________________________________________
split_relu_5_1 (Activation)     (None, 10, 10, 512)  0           split_batchnorm1_5_1[0][0]       
__________________________________________________________________________________________________
avg.pooling_5_1 (AveragePooling (None, 5, 5, 512)    0           split_relu_5_1[0][0]             
__________________________________________________________________________________________________
cnn2_5_1 (Conv2D)               (None, 5, 5, 512)    262656      avg.pooling_5_1[0][0]            
__________________________________________________________________________________________________
shortcut_conv_5_1 (Conv2D)      (None, 5, 5, 512)    131584      add_2[0][0]                      
__________________________________________________________________________________________________
split_batchnorm2_5_1 (BatchNorm (None, 5, 5, 512)    2048        cnn2_5_1[0][0]                   
__________________________________________________________________________________________________
shortcut_batchnorm_5_1 (BatchNo (None, 5, 5, 512)    2048        shortcut_conv_5_1[0][0]          
__________________________________________________________________________________________________
add_3 (Add)                     (None, 5, 5, 512)    0           split_batchnorm2_5_1[0][0]       
                                                                 shortcut_batchnorm_5_1[0][0]     
__________________________________________________________________________________________________
final-batchnorm_6_0 (BatchNorma (None, 5, 5, 512)    2048        add_3[0][0]                      
__________________________________________________________________________________________________
final-relu_6_0 (Activation)     (None, 5, 5, 512)    0           final-batchnorm_6_0[0][0]        
__________________________________________________________________________________________________
global_average_pooling2d (Globa (None, 512)          0           final-relu_6_0[0][0]             
==================================================================================================
Total params: 726,592
Trainable params: 719,680
Non-trainable params: 6,912
__________________________________________________________________________________________________
has tmp 0
has tmp 1
has tmp 10
has tmp 11
has tmp 12
has tmp 13
has tmp 14
has tmp 15
…
has tmp 46
has tmp 47
has tmp 48
has tmp 49
has tmp 5
has tmp 50
has tmp 51
has tmp 52
has tmp 53
has tmp 54
has tmp 55
has tmp 56
has tmp 57
has tmp 6
has tmp 7
has tmp 8
has tmp 9
Callback-TensorBoard
Callback-ModelCheckPoint
Callback-ReduceOnPlateau
Model: "model_1"
__________________________________________________________________________________________________
Layer (type)                    Output Shape         Param #     Connected to                     
==================================================================================================
input (InputLayer)              [(None, 150, 150, 3) 0                                            
__________________________________________________________________________________________________
conv2d_1_0 (Conv2D)             (None, 75, 75, 64)   9472        input[0][0]                      
__________________________________________________________________________________________________
barchnorm_1_0 (BatchNormalizati (None, 75, 75, 64)   256         conv2d_1_0[0][0]                 
__________________________________________________________________________________________________
relu_1_0 (Activation)           (None, 75, 75, 64)   0           barchnorm_1_0[0][0]              
__________________________________________________________________________________________________
cnn1_2_1 (Conv2D)               (None, 75, 75, 64)   4160        relu_1_0[0][0]                   
__________________________________________________________________________________________________
split_batchnorm1_2_1 (BatchNorm (None, 75, 75, 64)   256         cnn1_2_1[0][0]                   
__________________________________________________________________________________________________
split_relu_2_1 (Activation)     (None, 75, 75, 64)   0           split_batchnorm1_2_1[0][0]       
__________________________________________________________________________________________________
avg.pooling_2_1 (AveragePooling (None, 38, 38, 64)   0           split_relu_2_1[0][0]             
__________________________________________________________________________________________________
cnn2_2_1 (Conv2D)               (None, 38, 38, 64)   4160        avg.pooling_2_1[0][0]            
__________________________________________________________________________________________________
shortcut_conv_2_1 (Conv2D)      (None, 38, 38, 64)   4160        relu_1_0[0][0]                   
__________________________________________________________________________________________________
split_batchnorm2_2_1 (BatchNorm (None, 38, 38, 64)   256         cnn2_2_1[0][0]                   
__________________________________________________________________________________________________
shortcut_batchnorm_2_1 (BatchNo (None, 38, 38, 64)   256         shortcut_conv_2_1[0][0]          
__________________________________________________________________________________________________
add (Add)                       (None, 38, 38, 64)   0           split_batchnorm2_2_1[0][0]       
                                                                 shortcut_batchnorm_2_1[0][0]     
__________________________________________________________________________________________________
cnn1_3_1 (Conv2D)               (None, 38, 38, 128)  8320        add[0][0]                        
__________________________________________________________________________________________________
split_batchnorm1_3_1 (BatchNorm (None, 38, 38, 128)  512         cnn1_3_1[0][0]                   
__________________________________________________________________________________________________
split_relu_3_1 (Activation)     (None, 38, 38, 128)  0           split_batchnorm1_3_1[0][0]       
__________________________________________________________________________________________________
avg.pooling_3_1 (AveragePooling (None, 19, 19, 128)  0           split_relu_3_1[0][0]             
__________________________________________________________________________________________________
cnn2_3_1 (Conv2D)               (None, 19, 19, 128)  16512       avg.pooling_3_1[0][0]            
__________________________________________________________________________________________________
shortcut_conv_3_1 (Conv2D)      (None, 19, 19, 128)  8320        add[0][0]                        
__________________________________________________________________________________________________
split_batchnorm2_3_1 (BatchNorm (None, 19, 19, 128)  512         cnn2_3_1[0][0]                   
__________________________________________________________________________________________________
shortcut_batchnorm_3_1 (BatchNo (None, 19, 19, 128)  512         shortcut_conv_3_1[0][0]          
__________________________________________________________________________________________________
add_1 (Add)                     (None, 19, 19, 128)  0           split_batchnorm2_3_1[0][0]       
                                                                 shortcut_batchnorm_3_1[0][0]     
__________________________________________________________________________________________________
cnn1_4_1 (Conv2D)               (None, 19, 19, 256)  33024       add_1[0][0]                      
__________________________________________________________________________________________________
split_batchnorm1_4_1 (BatchNorm (None, 19, 19, 256)  1024        cnn1_4_1[0][0]                   
__________________________________________________________________________________________________
split_relu_4_1 (Activation)     (None, 19, 19, 256)  0           split_batchnorm1_4_1[0][0]       
__________________________________________________________________________________________________
avg.pooling_4_1 (AveragePooling (None, 10, 10, 256)  0           split_relu_4_1[0][0]             
__________________________________________________________________________________________________
cnn2_4_1 (Conv2D)               (None, 10, 10, 256)  65792       avg.pooling_4_1[0][0]            
__________________________________________________________________________________________________
shortcut_conv_4_1 (Conv2D)      (None, 10, 10, 256)  33024       add_1[0][0]                      
__________________________________________________________________________________________________
split_batchnorm2_4_1 (BatchNorm (None, 10, 10, 256)  1024        cnn2_4_1[0][0]                   
__________________________________________________________________________________________________
shortcut_batchnorm_4_1 (BatchNo (None, 10, 10, 256)  1024        shortcut_conv_4_1[0][0]          
__________________________________________________________________________________________________
add_2 (Add)                     (None, 10, 10, 256)  0           split_batchnorm2_4_1[0][0]       
                                                                 shortcut_batchnorm_4_1[0][0]     
__________________________________________________________________________________________________
cnn1_5_1 (Conv2D)               (None, 10, 10, 512)  131584      add_2[0][0]                      
__________________________________________________________________________________________________
split_batchnorm1_5_1 (BatchNorm (None, 10, 10, 512)  2048        cnn1_5_1[0][0]                   
__________________________________________________________________________________________________
split_relu_5_1 (Activation)     (None, 10, 10, 512)  0           split_batchnorm1_5_1[0][0]       
__________________________________________________________________________________________________
avg.pooling_5_1 (AveragePooling (None, 5, 5, 512)    0           split_relu_5_1[0][0]             
__________________________________________________________________________________________________
cnn2_5_1 (Conv2D)               (None, 5, 5, 512)    262656      avg.pooling_5_1[0][0]            
__________________________________________________________________________________________________
shortcut_conv_5_1 (Conv2D)      (None, 5, 5, 512)    131584      add_2[0][0]                      
__________________________________________________________________________________________________
split_batchnorm2_5_1 (BatchNorm (None, 5, 5, 512)    2048        cnn2_5_1[0][0]                   
__________________________________________________________________________________________________
shortcut_batchnorm_5_1 (BatchNo (None, 5, 5, 512)    2048        shortcut_conv_5_1[0][0]          
__________________________________________________________________________________________________
add_3 (Add)                     (None, 5, 5, 512)    0           split_batchnorm2_5_1[0][0]       
                                                                 shortcut_batchnorm_5_1[0][0]     
__________________________________________________________________________________________________
final-batchnorm_6_0 (BatchNorma (None, 5, 5, 512)    2048        add_3[0][0]                      
__________________________________________________________________________________________________
final-relu_6_0 (Activation)     (None, 5, 5, 512)    0           final-batchnorm_6_0[0][0]        
__________________________________________________________________________________________________
global_average_pooling2d (Globa (None, 512)          0           final-relu_6_0[0][0]             
__________________________________________________________________________________________________
classify-1 (Flatten)            (None, 512)          0           global_average_pooling2d[0][0]   
__________________________________________________________________________________________________
dense (Dense)                   (None, 512)          262656      classify-1[0][0]                 
__________________________________________________________________________________________________
activation (Activation)         (None, 512)          0           dense[0][0]                      
__________________________________________________________________________________________________
dense_1 (Dense)                 (None, 2)            1026        activation[0][0]                 
__________________________________________________________________________________________________
activation_1 (Activation)       (None, 2)            0           dense_1[0][0]                    
==================================================================================================
Total params: 990,274
Trainable params: 983,362
Non-trainable params: 6,912
__________________________________________________________________________________________________
Train for 1250 steps, validate for 156 steps
Epoch 1/100

   1/1250 [..............................] - ETA: 4:55:43 - loss: 1.3222 - acc: 0.5312
…
